m2_building_blocks/pra0_tau00_relulayers005_neurons064.pt (torch, 76425 bytes, 12 tensors)

weight f4 [64, 5]
000000 a4 ff a6 bf 44 ef 9e 3f 9f 6f 1e be 5c 08 a4 be
       -1.3046765 1.2416768 -0.15472268 -0.32037628
000010 e2 31 38 3e 75 a8 8f 3f aa 2a 04 3e 77 60 47 3f
       0.17987779 1.1223284 0.129069 0.7788157
000020 ba 5a b3 be a4 8d 5d 3e d5 bb ce 3f 8d b2 98 c0
       -0.35030156 0.21636063 1.6151072 -4.7717957
000030 35 b6 74 3d 02 04 46 3e 98 f4 d5 bc 2c 5a 4c c0
       0.05974408 0.19337466 -0.026117608 -3.1930037
000040 c9 b6 d4 3f 1a 3a 9f 3d 06 db 9d be 78 f8 8e 3e
       1.6618282 0.07774754 -0.30831164 0.27923942
000050 33 36 e7 bf db 0f 51 40 f9 12 82 bd 9a 58 03 bf
       -1.8063415 3.2665927 -0.06351275 -0.5130707
000060 16 aa 02 bf f2 95 6b bf b7 27 da bf 35 8c 38 3e
       -0.5104078 -0.92025673 -1.704337 0.18022235
000070 0a 7a 0d 3e 9c 5e 42 bf 86 c9 53 3e 72 a9 b5 3f
       0.13816085 -0.7592561 0.20682344 1.4192336
000080 0b 72 f7 be c7 e8 59 3d 0f 98 08 bc a9 1d 4d c0
       -0.48329195 0.05320051 -0.008337035 -3.2049353
000090 d5 be ef bf 84 d6 25 3d 7a 79 a3 be 21 56 b5 bb
       -1.8730112 0.04048778 -0.31928617 -0.005533949
0000a0 98 2f 94 ba bb df 6c 3f 2e 5f d2 3e 9b f1 8d bd
       -0.0011305688 0.92528886 0.4108824 -0.06930848
0000b0 48 be 04 3e 6e 7a 4d c0 87 eb 06 bf 9d d9 a0 bd
       0.12963212 -3.2105975 -0.52703136 -0.078540064
0000c0 f5 2d 39 bc 47 5c df be 1b 71 fb 3f 03 b6 95 3f
       -0.011302461 -0.4362509 1.9643892 1.169617
0000d0 2f b0 e1 bc af 2b 6f be 7b 6a 8f bc 10 5d 83 be
       -0.027549831 -0.23356508 -0.017506829 -0.2565694
0000e0 49 c7 4d c0 e3 0d cc be db de ad bb 1c 40 7c 3a
       -3.2152884 -0.39854345 -0.0053061075 0.000962259
0000f0 f4 78 90 3e 05 9a ed 40 2c 85 54 be c5 99 c3 bc
       0.2821728 7.425051 -0.20753926 -0.023877034
000100 4d 8c ea 3c c1 01 86 3e 9a af 3d be 20 dc 5d be
       0.028631354 0.26173213 -0.18524018 -0.21666002
000110 3b f9 94 be a7 e7 61 3e 16 5c ee bd 3c 97 24 be
       -0.29096398 0.22061025 -0.11638658 -0.16073316
000120 4a ca eb bd 21 3b 81 be 87 1b d4 3d 22 9b 24 3f
       -0.11513193 -0.25240424 0.10356813 0.64299214
000130 9c da 19 c0 07 12 bf 3e 39 f9 19 3f 95 3d 8e bd
       -2.4039679 0.3731844 0.6014591 -0.069453396
000140 8f 3d 9d 3f b7 eb 9a c0 27 dc d6 3d 00 b0 35 be
       1.2284411 -4.841274 0.104912095 -0.1774292
000150 86 86 44 3d 00 90 cc bf 7f 0b f0 bf 34 83 91 3e
       0.047979854 -1.5981445 -1.8753508 0.28420413
000160 d0 9f 91 bd 4b 18 81 3e c0 2f 55 3d d9 ff 5c bf
       -0.0711056 0.25213847 0.05204749 -0.8632789
000170 bb 3f 25 3e 3e 60 1c 3e 51 8a 2e 3d 7e 1a 0e c0
       0.16137592 0.15271088 0.042612378 -2.220367
000180 d5 96 3d c0 7d 64 de 3e 0b 8a be 3d 0f 6e 8a bd
       -2.962331 0.4343604 0.09303673 -0.06759273
000190 f4 d4 66 be b5 05 a5 be 3d 26 9e 3e 5a dc 52 bc
       -0.22542173 -0.32230917 0.30888548 -0.012869919
0001a0 64 95 2a 3d 68 7f 1b 40 be 1e 8f 3f 02 f4 9b bd
       0.041646376 2.4296513 1.1181257 -0.076149
0001b0 98 0c ba 3e 32 94 b2 bc 71 ce 8e c0 cb 26 07 c0
       0.36337733 -0.02179918 -4.4627004 -2.1117427
0001c0 80 17 7c 3e 07 78 29 3d 7d 67 5c bc 82 00 2f c0
       0.2461834 0.041374233 -0.013452408 -2.734406
0001d0 82 9e 58 3f b4 f6 d2 be 32 92 47 bd f3 f9 ff 3e
       0.84616864 -0.41203845 -0.048723407 0.49995384
0001e0 62 d1 20 bf 56 a7 fd 3f 77 d7 02 3e 8b 9e 5b bd
       -0.6281949 1.9816692 0.12777506 -0.053617995
0001f0 ee e1 49 3e cc 6d ce 3f c4 41 8e 3f 7d e0 8c be
       0.19715092 1.6127257 1.111382 -0.2751502
000200 30 9b 35 be ae 1d 94 be b6 d3 1c 3f 8a 4d 77 bf
       -0.1773498 -0.28928894 0.61260545 -0.9660269
000210 63 c4 e3 be f3 cc 06 bf 7a cc 68 3d 3f e2 63 3e
       -0.4448577 -0.5265648 0.05683563 0.22254275
000220 ff ac 06 be 0e d4 e0 be 13 ff b8 3e 55 b2 6f 3e
       -0.1315193 -0.43911785 0.36132106 0.23407872
000230 6e af 77 bf 9f 20 76 bf 24 1d 2a bf 8c a3 0c be
       -0.9675206 -0.96143526 -0.66450715 -0.13734263
000240 23 a6 e7 bc 67 ef 38 c0 6c 41 6b c0 aa ed 08 bd
       -0.028277462 -2.889612 -3.675868 -0.03342978
000250 a9 f4 bf bd 31 d7 ee 3d df 16 91 3f 81 56 19 40
       -0.09372837 0.11662138 1.1335105 2.3959048
000260 85 db 99 bd 12 b6 c9 3e db 08 62 be 23 4f 91 3f
       -0.07512573 0.3939672 -0.2207369 1.1352276
000270 d8 f4 ac bf 22 80 e2 be fe 4a 68 bd 08 98 9f 3d
       -1.351222 -0.44238383 -0.056712143 0.077926695
000280 7b 70 80 3e 3b 97 80 3e cb e1 31 3f ff 4d 15 3a
       0.25085816 0.2511538 0.6948516 0.0005695521
000290 b5 c9 9b 3d e3 68 d6 be 0d 17 c2 bf d6 0b 26 bd
       0.07606832 -0.41876897 -1.5163285 -0.04053863
0002a0 43 33 e1 be 2a e3 06 bf 9c 8d e1 bf 70 4c 98 40
       -0.43984422 -0.52690375 -1.7621341 4.7593307
0002b0 8a 90 ab 3c 83 fa 03 3d 56 e5 a7 be 8f e3 7b 3f
       0.020942945 0.03222133 -0.32792157 0.983941
0002c0 e1 b4 8d 3f fe 01 35 3d 1a ee a2 be 50 f7 d1 be
       1.1070825 0.044191353 -0.31822282 -0.41008997
0002d0 78 7e a3 be 4d 77 3e 40 9d 9e 86 be 80 f9 e2 bc
       -0.31932425 2.9760315 -0.26292887 -0.027706861
0002e0 9c 50 15 3e 01 45 82 bf d1 cd 5b 40 82 49 17 be
       0.14581531 -1.0177308 3.434437 -0.14774135
0002f0 83 7f b7 3e e5 8b cd bc 56 0f 5f bf c0 56 48 3f
       0.3583947 -0.025091121 -0.87132776 0.7825737
000300 16 85 7b 3e 1d da 9d bc d5 c5 ef bc 4e c9 a9 3d
       0.24562487 -0.019269044 -0.029269138 0.08290349
000310 1a 78 92 bd 7c 95 84 3e 9c 7f 90 3d ec ca bc 3d
       -0.07151814 0.25895298 0.070555896 0.09218392
000320 36 e7 21 bf d4 fe 38 40 07 dd e7 be c6 a3 35 bc
       -0.63243425 2.8905535 -0.45285818 -0.01108641
000330 d8 03 93 3b c5 4e c8 3e 4a 6a c4 bf 17 ee 4a be
       0.004486542 0.39122596 -1.5344937 -0.19817387
000340 a4 f9 c3 3e a9 1e e1 be 4c 30 ab 3e f6 cf bc 3c
       0.38276398 -0.43968704 0.33435285 0.023048382
000350 a7 ae 0b 3e 6e c0 40 bd bf d4 6c bb 45 6f e7 3f
       0.13640843 -0.047058515 -0.0036137549 1.8080832
000360 90 b9 4d 40 0c 66 f1 3c 57 0e cb bd e3 4f 0c 3e
       3.2144508 0.029467605 -0.099148445 0.1370235
000370 60 72 22 3f b6 68 49 3f bc e7 3f be f1 68 b9 bc
       0.6345577 0.786754 -0.18740743 -0.022633048
000380 56 06 b5 3d 8a 38 71 3f 16 29 46 40 77 7f 7e be
       0.08839099 0.94226897 3.0962577 -0.24853311
000390 f5 48 c4 3d f9 ae 6f be bc 9a b0 be 62 07 cb 3f
       0.09584228 -0.2340659 -0.34493053 1.5861628
0003a0 34 82 8a be c0 78 fe 3d 1b a2 b4 be 1d 3b ac bf
       -0.27052462 0.12425375 -0.35279927 -1.345554
0003b0 9f f8 a5 bf 6c e5 d6 be 74 2d 19 3f 1a 2c 1d 3e
       -1.2966498 -0.4197191 0.5983498 0.15348855
0003c0 8b 47 53 bd cd 01 fe 3e f2 fe de 3d 36 51 51 3d
       -0.0515819 0.4961075 0.10888471 0.05110284
0003d0 ea 60 0c 3e ba 60 68 c0 78 e5 11 40 15 f5 ff 3d
       0.13708845 -3.6309037 2.2796307 0.124979176
0003e0 90 81 4e be 8c 3a 52 be 7d 63 ed bd 97 fc a9 3f
       -0.20166612 -0.20530146 -0.115912415 1.3280209
0003f0 18 99 99 be 4f ad d6 3e 7d b5 32 be a3 86 b3 bf
       -0.29999614 0.419291 -0.17452045 -1.4025463

bias f4 [64]
000000 d2 5e 68 3e 68 cd ab be 0a 97 5d 3e 9c 2f be bc
       0.22692421 -0.3355515 0.21639648 -0.023216061
000010 73 59 32 be a2 d0 dc bc cc 18 8b 3e ca da 20 be
       -0.17416935 -0.026954953 0.27167356 -0.15708461
000020 58 6d 3b 3d 01 d6 28 be a2 f2 8c bc eb 45 69 3e
       0.045758575 -0.16487886 -0.01720554 0.22780578
000030 a3 bb 29 3e 85 26 e3 be cf 5b 9f be e2 1a bc bd
       0.16575484 -0.44365326 -0.31124732 -0.09184815
000040 b0 9b 48 3e 10 5b 43 3e f2 11 b0 3c 03 65 b2 bd
       0.1959064 0.19077706 0.021492932 -0.08710673
000050 50 90 e9 be 95 f0 3d be 0f e5 9f 3b 54 6e 1d bd
       -0.45617914 -0.18548806 0.004879601 -0.038435295
000060 74 74 08 3e 15 99 9d be 1b 57 58 3e 74 a2 dc be
       0.13325673 -0.30780855 0.21126978 -0.43092692
000070 e6 5a ba 3e 6a a1 1b 3e 28 ed 08 3d 6e 02 86 3e
       0.36397475 0.15198293 0.033429295 0.2617373
000080 b4 1f 34 3a 1c 64 de be d0 50 02 be 4a 13 da 3c
       0.0006871179 -0.43435752 -0.1272614 0.026620526
000090 f0 90 72 3e d2 23 df 3d ef d5 99 3d 4f e5 45 bd
       0.23688102 0.10895504 0.07511508 -0.04831439
0000a0 02 84 78 3e 1e 0e f0 3d 9e 5d ae be 75 8c cb 3d
       0.24269107 0.11721443 -0.340558 0.099388994
0000b0 18 9b 7b 3d 22 e7 83 3e 95 3a e4 3d d8 ce 45 bd
       0.061427206 0.25762278 0.11143986 -0.048292965
0000c0 1f a0 00 3e 37 6c f7 3d 3f 4a fc 3d 84 0c d9 be
       0.12561081 0.12081187 0.12318849 -0.4239236
0000d0 0a 4d ac be 7d c5 60 be 91 8d b3 be 98 60 bd 3e
       -0.33652526 -0.21950336 -0.35068944 0.36987758
0000e0 35 33 d2 be 14 96 d8 be 69 f5 8c 3e 33 29 8c be
       -0.41054693 -0.42302 0.27530983 -0.27375183
0000f0 d0 91 f1 3d 03 52 a1 3e fd 8d 81 be 38 7a c8 3e
       0.1179539 0.31507882 -0.2530364 0.39155746

weight f4 [64, 64]
000000 b2 29 86 3e b0 6c 9a 3d 65 b7 b0 bd bc cb 10 be
       0.26203686 0.07540262 -0.0862873 -0.14140218
000010 23 2f fc be d7 d6 87 be ef ed 55 ba 41 d6 73 be
       -0.49254712 -0.26531097 -0.000816076 -0.238122
000020 5e e6 82 3e fb eb e1 3e 80 50 f2 3d 5c e9 36 be
       0.2556638 0.4412535 0.118317604 -0.17862457
000030 0c 28 1a be 5c bc 64 3d 88 f4 01 3d 62 43 0c bc
       -0.15054339 0.055843696 0.031727344 -0.008560987
000040 98 02 5b bd 7d 85 12 bd 3a 5f 1d 3e 09 42 f5 3e
       -0.05346927 -0.035771836 0.15368357 0.47901943
000050 38 b8 8a 3d 52 79 0b 3f 6f 65 08 3d 60 cb d5 be
       0.06773418 0.54481995 0.03329986 -0.41756725
000060 a0 a1 00 3e 4f b9 cb be a2 e8 fe bd 04 9e 35 3d
       0.12561655 -0.39789817 -0.12446715 0.04434015
000070 63 dc 7b 3c 16 0d b4 bd 62 66 5f bd 19 78 a7 3d
       0.0153723685 -0.087915584 -0.054541 0.08177204
000080 94 60 16 3e fb 3a 16 3c 15 fc a0 3e 3c c1 d1 3e
       0.14685279 0.0091693355 0.31442323 0.4096774
000090 37 39 6b be 41 57 fb bb ab f1 ee be 90 90 0b 3e
       -0.22971044 -0.0076703136 -0.46668753 0.13629365
0000a0 d5 fa c3 3d ee 27 42 be 5e 3b 9a bd 71 31 89 bd
       0.09569327 -0.18960544 -0.07530855 -0.06698883
0000b0 64 d1 f6 3a 8e 2c 58 3e 0b 0d 25 3e 0e f0 1c 3f
       0.0018830714 0.21110746 0.16118257 0.61303794
0000c0 43 83 3d 3e da 51 aa bd 37 a7 f6 bd f0 ec 65 40
       0.18507104 -0.08316393 -0.120436125 3.5925865
0000d0 b8 f7 94 3d 23 e1 86 3d 5d bb 0e 3e ef 0a 7b be
       0.07273811 0.0658591 0.13938661 -0.2451589
0000e0 86 a9 3b c0 66 ef d8 3d f0 ba 2f 3d b8 8a 57 bf
       -2.932222 0.10592537 0.042902887 -0.84196043
0000f0 31 64 e1 bd a2 df aa bd aa e2 d0 3c 32 2c 6c 3e
       -0.11005438 -0.08343436 0.025498707 0.23063734
000100 df ea 2d be 52 67 4c bd 57 5d 32 3d 70 3a 38 bb
       -0.16984127 -0.04990322 0.043546047 -0.0028111003
000110 24 a3 d5 3c 15 3b 48 3c 01 8f 48 bb e5 dc b3 3d
       0.026078768 0.0122211175 -0.0030602815 0.08782367
000120 81 23 72 3d c3 e6 0e be 81 9c 62 3d 9e 1d f7 bd
       0.05911589 -0.13955216 0.055325035 -0.12066196
000130 75 a3 2e be a0 ea 2e 3d 28 74 ee 3c 28 dd c8 bd
       -0.17054541 0.042704225 0.029108122 -0.09807807
000140 6d f8 f7 bd a4 74 0b be dc 70 8f 3b 73 29 24 be
       -0.1210793 -0.13618714 0.0043774676 -0.16031437
000150 da 67 48 bd 2c 6f 11 be a9 cc 5d bd dd 4c f7 bd
       -0.048927166 -0.14202565 -0.054150257 -0.120752074
000160 d1 3b 74 3d e5 d0 ec 3b 74 73 32 be 5c 2b 4e 3d
       0.059627358 0.0072270506 -0.17426854 0.05033432
000170 bd dc 29 bd 2b 81 1c 3d 7c 9b 9e bd 65 4c 1a 3d
       -0.041470278 0.03820912 -0.077445 0.03767051
000180 77 24 2b be 14 c3 90 3d 76 27 d6 bd ea b4 82 3d
       -0.16713129 0.07068458 -0.10456745 0.06382163
000190 aa e8 da bd 3e bd 7c bd 4f d4 15 be 5e f4 2d bd
       -0.106889084 -0.061703913 -0.1463177 -0.042469375
0001a0 e4 3d c5 bd e9 be b5 3c a0 ca df 3c 75 b5 de 3c
       -0.09630945 0.02218576 0.027318299 0.027186135
0001b0 30 5a 3c bd 24 47 ea bc d5 b2 3f 3d 39 62 0a be
       -0.045984447 -0.028598376 0.046801407 -0.13514031
0001c0 fe 67 88 3d d6 3e 1c 3b e7 0a dd bc 66 e1 c7 3c
       0.0666046 0.0023841164 -0.026982738 0.02439947
0001d0 dd 0c 30 3d 21 ff 88 bd ae ad 06 3e 6e db ef bd
       0.042981017 -0.06689287 0.13152191 -0.11711775
0001e0 7a 95 ca bd 36 a7 9a 3d f2 27 92 3c 2d 07 83 bd
       -0.09891792 0.07551424 0.017841313 -0.06397853
0001f0 20 f8 ee bd 2b cc 2d be 9c 5b dd bd 25 43 b8 bd
       -0.1166842 -0.16972415 -0.10808489 -0.08997182
000200 a2 aa 56 3d 30 1e e9 bd 11 a6 5d 3c 92 89 2f 3e
       0.052408822 -0.11382711 0.013528363 0.17142323
000210 a1 7e bf 3e b6 5b 51 be 79 54 a9 ba 92 bc 82 bf
       0.37401298 -0.20445141 -0.0012918852 -1.0213797
000220 78 4b b9 3d df d5 b8 bf 3f 1c 86 3e 42 e5 ca be
       0.09047598 -1.4440268 0.26193425 -0.39628035
000230 4c e3 eb be 55 9d eb bd c0 27 f8 3c 1b f1 05 be
       -0.4607185 -0.11504618 0.030292392 -0.13080256
000240 d0 8d 8b 3d e4 f6 7d bc bb 8b 89 bd 61 a7 5a 3f
       0.06814158 -0.015500758 -0.067161046 0.8541165
000250 93 3d 8b bd 5d 51 33 be 73 70 51 3f c7 8c 0d bf
       -0.06798854 -0.17511506 0.8181221 -0.55292934
000260 52 b8 17 3e ce 38 e3 3e 40 1b c1 3c 28 0d 3e 3d
       0.14816406 0.44379276 0.023572564 0.046399266
000270 4e 54 98 3e df f0 15 3c e9 24 44 bd db 1b 9a be
       0.2975182 0.009151666 -0.047886763 -0.30099377
000280 eb 1b 98 3d c9 b6 48 be 77 8f ab bc 22 75 c6 3e
       0.074272 -0.19600977 -0.020942433 0.3876124
000290 24 67 10 be f3 3e e0 bd 0c 02 00 3e da 07 72 be
       -0.14101845 -0.109495066 0.12500781 -0.23635808
0002a0 73 ab 17 3e 86 aa c4 3b c6 47 d0 bd 0b 11 9c be
       0.14811496 0.0060017733 -0.1016994 -0.30481753
0002b0 c3 d1 a7 3d 4f cb b8 3d 66 58 a9 be 5c 7a 94 3d
       0.08194306 0.09023153 -0.33075255 0.07249901
0002c0 4a 68 d7 3d 9b f1 59 3e 9d a2 4e 3e 65 e6 2d bf
       0.105179384 0.21283571 0.2017922 -0.6792968
0002d0 5e 1f e5 bb e0 e5 5b 3f 0a 2b 7b 3f 5b 14 65 be
       -0.0069922647 0.85897636 0.9811255 -0.22371046
0002e0 01 06 ce 3d 00 36 5a bd 12 fb 98 3d 59 fe 5b 3f
       0.10059739 -0.053274155 0.07469763 0.8593498
0002f0 d4 f0 85 3e 47 61 11 bd 24 cf 02 3c dd 5f 01 3e
       0.261603 -0.03549316 0.0079839565 0.12634225
000300 5d 1d 8b be 2e 2a 83 ba 47 c5 69 bd c5 32 60 be
       -0.2717084 -0.0010007077 -0.057072904 -0.21894367
000310 1b 20 03 bd f4 39 90 bd 21 9c 8d 3d 2d 15 b0 bd
       -0.03201304 -0.07042304 0.06914545 -0.08597789
000320 54 5b 90 3d ae 3a 2a be ff b6 de 3c 76 3a 06 be
       0.070486695 -0.16623947 0.027186869 -0.13108239
000330 ca 6b d6 bd 00 93 cd 3c 70 6d 16 3d 0e 47 28 be
       -0.10469778 0.02509451 0.03672546 -0.16433355
000340 97 08 c0 bd 9a c4 a5 bd ac bc 4e bd 9d 2c 97 3c
       -0.093766384 -0.080941394 -0.0504729 0.01845389
000350 a1 28 a7 3d bc aa 78 3d 1f 4a 49 bd 51 ee c5 bd
       0.08162046 0.0607097 -0.049142953 -0.09664596
000360 8a b3 f6 bd 5d 79 8e bd a3 f8 7f be 9a 47 a1 bd
       -0.12045963 -0.06956742 -0.24997191 -0.07874985
000370 8d 58 3e be 3e 87 0e be 66 70 82 3c 80 cd 67 be
       -0.18588467 -0.13918778 0.015922736 -0.22636986
000380 42 e5 6f be ff 9d 7b be 25 7d 8b bc 3e 7b fb bc
       -0.23427299 -0.2457199 -0.017027447 -0.030698415
000390 91 91 5b bd cd f8 b4 bd e2 18 95 bd 3e 2c 18 be
       -0.05360562 -0.088365175 -0.07280137 -0.14860627
0003a0 09 1e 6e bd 47 15 13 be d8 ed b6 bc 4e 60 ec bd
       -0.058134113 -0.14363585 -0.02233021 -0.11541806
0003b0 29 c8 57 bd bb d8 fb bd e6 00 6a bd 7b f4 8a bd
       -0.052681122 -0.122971974 -0.057129763 -0.06784912
0003c0 a7 b5 73 be 47 4c 0e 3c 18 40 0f be 38 60 ea bb
       -0.23799764 0.008685178 -0.13989294 -0.0071525835
0003d0 b5 20 56 3d 31 a0 15 bd 7d 57 d8 3d 81 11 0d be
       0.052277286 -0.036529724 0.10563562 -0.13776208
0003e0 db 18 d0 bd 7e 22 f6 3d 24 00 28 bd 34 36 aa bd
       -0.10160991 0.120182976 -0.04101576 -0.0831112
0003f0 e3 1d 09 be 4b df ce bd 85 11 14 3d 36 1c 00 be
       -0.13390307 -0.101011835 0.03614952 -0.12510762

bias f4 [64]
000000 4e f7 ab 3d 03 e4 83 3d 17 f7 9a 3d c6 ed 6d be
       0.08396779 0.06439974 0.0756666 -0.23235235
000010 ee 56 b2 3e 53 92 3a 3c a7 72 6a bd e9 6e 39 be
       0.34831947 0.0113874255 -0.057238247 -0.18108715
000020 10 37 2a be 2f 21 9c bd c5 38 bf bd 25 7e 7d bc
       -0.16622567 -0.07623517 -0.09337 -0.01547197
000030 07 ce 9b 3d 9d ea 08 bd 94 2a 59 3c 43 35 8f 3d
       0.07607656 -0.03342687 0.01325478 0.06992581
000040 9b 46 47 bd 9e 7f b2 3d ea 9a c7 bc f1 12 95 bd
       -0.04865132 0.08715747 -0.024365861 -0.072790034
000050 a5 90 59 bd ac 7c 46 bd 23 98 47 3b 9b 0b 1d bc
       -0.05311646 -0.04845874 0.003045567 -0.0095852865
000060 c1 38 4b 3e cc 26 9a bb 2f 40 d2 bd b3 ec 8f be
       0.19845869 -0.004704332 -0.10266148 -0.28110275
000070 79 c3 11 3a 9c f3 ad 3d 50 a3 2a 3c db 2c b5 be
       0.0005560439 0.084937304 0.010414913 -0.35385785
000080 ff a3 1b 3e a0 38 5b bd dd 4a 4a bc cf 5f f7 3b
       0.15199278 -0.0535208 -0.01234695 0.007549263
000090 0e 67 11 3d c2 97 e4 bd d8 0f 00 bd 23 d4 08 bc
       0.03549867 -0.11161758 -0.03126511 -0.008351359
0000a0 bc cf ec bd e0 0f ea bd aa 97 0e be 55 32 e9 3d
       -0.1156306 -0.11428809 -0.13925043 0.11386553
0000b0 c2 90 5a 3e 6c 40 53 bd 09 25 a2 3d 27 d3 4b 3e
       0.21344283 -0.05157511 0.0791722 0.19904767
0000c0 c7 d6 3d 3d dc 96 19 3e 7c 6e e3 bd 73 bc 0d be
       0.046347406 0.14998955 -0.111050576 -0.13841419
0000d0 9c 1f a8 bd dd 1b 4b be 09 9b df bb 70 04 0e be
       -0.08209154 -0.19834848 -0.0068239016 -0.1386888
0000e0 36 16 51 3d c5 92 3d 3c 54 52 1d be fc 05 13 be
       0.051046573 0.011570637 -0.15363437 -0.14357752
0000f0 0c 68 7c 3e 4b ef 09 3c ee 70 4a bb 5e 01 14 3e
       0.24649066 0.008418868 -0.0030890065 0.14453647

weight f4 [64, 64]
000000 af 34 ad 3e a6 6a 9e 3c 6b 2a 9f bd a3 36 47 bc
       0.33829257 0.019337963 -0.077717625 -0.0121590225
000010 65 ef d8 3d b4 27 99 3d 5c 1d a1 be 71 28 fd be
       0.10592536 0.07478276 -0.31467712 -0.49444917
000020 b3 53 a1 3d 63 05 6e 3e 40 1f dd 3d 09 f2 dd bc
       0.078772925 0.23244242 0.10796976 -0.02709295
000030 68 8f a4 3c 01 61 e3 be 33 48 99 bd 39 5e f8 bd
       0.020087913 -0.44409946 -0.07484474 -0.121273465
000040 5b 58 51 bd 4d f2 78 3d 7e 1a 3e bd 3e 84 86 bd
       -0.051109653 0.06077795 -0.046411984 -0.06568192
000050 51 37 54 3e 7c fa 21 3f cd 63 9f 3d c7 a5 b4 bc
       0.20724227 0.63272834 0.07782707 -0.022051705
000060 53 7d 08 3e fa f4 99 bf 0e fd ae bc 28 a4 07 bf
       0.13329057 -1.2027886 -0.0213609 -0.5298486
000070 2b d8 80 3e 61 4b 88 3e c2 9b 58 be c9 9d fb 3e
       0.25164923 0.2662001 -0.21153167 0.49143818
000080 b4 55 f6 3e 55 c0 a9 bd 61 1a 65 bd 8c 1b 99 bd
       0.4811226 -0.082886375 -0.05593336 -0.07475957
000090 6c 43 a5 be cb 32 1f 3c b2 27 e2 3c 55 1d 17 3e
       -0.32278 0.0097167 0.027606819 0.14757283
0000a0 b1 ab 88 3e 68 42 c7 3d 2d dd 2f bf 11 6a 0e 3e
       0.2669349 0.09729463 -0.6869686 0.13907649
0000b0 19 7d 2c be 20 1f 87 3d 3a 8f e5 bc b3 34 c6 3e
       -0.16844596 0.065977335 -0.028022397 0.3871208
0000c0 f8 46 fd 3d 4c d7 2c 3e 1f 88 da 3e f1 55 b2 bd
       0.12367052 0.16879004 0.42681977 -0.08707798
0000d0 f4 27 92 bd fd 67 54 be c9 c4 41 bd 0e 07 b8 3d
       -0.07136527 -0.20742793 -0.04730681 0.089857206
0000e0 57 fe 1d 3e 54 e7 08 3c a4 d5 e9 3d fa dc 9f be
       0.15429054 0.008355934 0.11417702 -0.3122328
0000f0 96 f5 88 3e 62 ce aa 3d 6f aa 5a bd 55 8e ad 3e
       0.26749867 0.08340146 -0.053385194 0.33897653
000100 95 3c 3e be ac 9c 86 3c ec fb 87 3e 62 3b d8 bc
       -0.18577798 0.016432129 0.2655939 -0.026395503
000110 a8 73 fa 3d cb db 86 bc 0c b8 70 bd e8 33 1f 3f
       0.12229091 -0.016462227 -0.05876927 0.6218858
000120 06 dc cf 3d 40 61 34 3f 48 7f 6f 3c 5e ec 10 3e
       0.10149388 0.7046089 0.014617749 0.14152667
000130 4c e2 ad 3d 85 18 81 3e 7b 0b ac be 41 3d 27 3e
       0.08490428 0.2521402 -0.3360251 0.1633196
000140 d2 69 2b bd a6 cb 5c be f5 e2 04 3e 1b 5f a1 3c
       -0.041848965 -0.2156206 0.12977202 0.01969867
000150 50 30 b9 bc 44 94 d4 be 2b 61 1c be f8 c9 4d bd
       -0.022606045 -0.41519368 -0.15271442 -0.05024144
000160 6f ac 5a be b8 a2 e4 3d b8 60 dc bd be f7 8a 3e
       -0.2135484 0.11163849 -0.10760635 0.27142137
000170 47 e3 bd 3d e1 f4 6d be 7c b7 4b be 01 4b 89 be
       0.09271865 -0.23237945 -0.19894212 -0.26815036
000180 f2 81 94 3d 1d 72 9e 3b 08 d1 ac 3c 9c 3c 34 3f
       0.072513476 0.0048353807 0.021095768 0.7040498
000190 d6 93 b5 bd 41 8f be bd d2 e4 21 3e 99 28 47 3d
       -0.08866088 -0.09304667 0.15809944 0.0486227
0001a0 21 09 48 3e d9 02 a3 3d b6 3a 31 be 9f 6d 7f 3d
       0.19534732 0.079595275 -0.17307553 0.062360402
0001b0 65 cd a9 be 88 6f 60 3d c3 e2 2d bc 20 4a 2b be
       -0.33164516 0.054793864 -0.010613146 -0.16727495
0001c0 d9 25 8f 3e ba 63 84 3d e9 fa cf 3e 8f ce c4 3d
       0.27958563 0.06464334 0.40621117 0.096097104
0001d0 b0 ae b1 3e 49 46 86 3e 4c ae 38 3c c9 72 3e bc
       0.34703588 0.26225498 0.011272024 -0.011624047
0001e0 ad 4d 1b 3e 58 e6 9a 3d e1 9f c7 3e 04 1d 53 3e
       0.1516635 0.07563466 0.38989165 0.20616537
0001f0 b4 c0 bc 3e 58 89 cd bd 96 b4 d9 3e b0 22 db 3c
       0.3686577 -0.10035962 0.4252059 0.026749939
000200 53 b7 ec 3a b4 f0 0b 3d 00 15 22 be 91 fb b6 3d
       0.0018060006 0.0341651 -0.15828323 0.08934701
000210 a4 44 c7 be d0 6e 54 3c 54 3c 14 bf 86 d6 9b 3e
       -0.38919556 0.012965873 -0.57904553 0.30437106
000220 60 42 4e bd d3 9b 10 3e 82 78 cc bd 89 a8 b9 3e
       -0.05035627 0.14121942 -0.099839225 0.36261395
000230 4a 20 e8 be 5d 15 bf be bd 70 d3 bd 1d 7f a0 3e
       -0.45337135 -0.37320986 -0.103242375 0.3134698
000240 8b 24 bf 3d d9 c5 d0 bd b6 a4 b9 bd 72 26 f9 3d
       0.09333142 -0.101939864 -0.09064619 0.12165536
000250 e3 f6 c1 3c ae ae 05 3f ca 41 95 be fe 81 84 bd
       0.023677295 0.52219665 -0.29151756 -0.064701065
000260 1e 8a a5 3e ed 10 18 bf 80 b9 86 3d c0 72 2d 3c
       0.32331938 -0.59400827 0.0657835 0.010586441
000270 50 f5 50 bd 4c 76 ae bd d4 43 93 bd f9 a5 ae 3d
       -0.0510152 -0.08518657 -0.071906716 0.085277505
000280 43 78 d5 bd 76 42 9c 3d a8 ad 7a bd b2 0d 06 3f
       -0.10423329 0.07629864 -0.061200768 0.5236465
000290 39 f0 3d 3f 00 9d 96 3b dd b7 27 be c7 28 7f 3d
       0.74194676 0.0045963526 -0.16378732 0.062294748
0002a0 f1 64 13 3e e0 f1 00 bd 70 c2 12 3f 67 9a 96 3c
       0.14393975 -0.03148067 0.5732794 0.018384172
0002b0 fb 04 aa 3e 0c ce a1 3d 18 03 9b be df 42 b2 bd
       0.33206925 0.079006284 -0.30275798 -0.08704161
0002c0 d4 14 17 be 49 0f 55 3e 14 72 86 3e f0 df c5 bd
       -0.14754039 0.20806612 0.2625891 -0.09661853
0002d0 a3 2c f9 be 28 39 76 3f f0 9c 82 3c a6 f2 ac bd
       -0.48666868 0.96180964 0.015943974 -0.08444719
0002e0 71 d8 09 be 36 01 8d 3d c3 1d 59 bd 88 bf 21 3f
       -0.13461472 0.068849966 -0.0530069 0.6318288
0002f0 f3 2d b8 3d 19 45 a8 bc a6 78 10 be 71 79 ca bd
       0.08993139 -0.02054076 -0.14108524 -0.09886444
000300 e5 94 a5 3d fb fa 02 be f5 72 3c 3d 58 64 c5 bd
       0.0808504 -0.12791054 0.04600807 -0.0963828
000310 b0 39 5e 3d 6f c8 67 bd 35 97 db bd c8 23 9a bc
       0.054254234 -0.056587633 -0.107222 -0.01881589
000320 28 f5 ec 3c e3 c9 b2 bd d0 07 36 bd 38 ca 1a 3b
       0.028925493 -0.08729913 -0.044441044 0.0023619067
000330 88 02 01 3d 64 ba b1 bc 8d 08 a2 bd f3 08 b6 3d
       0.031496555 -0.021695323 -0.07911787 0.08888426
000340 b0 85 53 3c 19 1b 2b 3b 10 20 cc bd 36 ca da 3d
       0.012910292 0.002610868 -0.09967053 0.106831
000350 3d 06 81 3d b9 61 8a 3d 3f ad 0c be 58 3b 0e bd
       0.06300018 0.0675692 -0.13737963 -0.034724563
000360 b5 a2 ba bc c1 04 2c 3c de 1f c6 bd 0c f2 f9 bd
       -0.022782663 0.01049918 -0.09674047 -0.1220437
000370 8e b1 1e be c1 91 ba bc 91 4c 6e bc f5 5f 13 bd
       -0.15497419 -0.022774579 -0.014544622 -0.035980184
000380 d6 bb fc bd e0 85 06 bc f8 1f 88 3c f7 24 78 bd
       -0.12340514 -0.008210629 0.016616806 -0.060582127
000390 0e 8b c3 bd fc 06 68 3d 88 5b b8 bd d9 4b 5f 39
       -0.09548007 0.056647286 -0.09001833 0.00021295193
0003a0 0e c0 94 3d aa d1 11 be 7a 1d 0d be 29 0b 53 bd
       0.07263194 -0.14240137 -0.13780776 -0.051524315
0003b0 da 6f ef bd d6 d4 9d bd 3a 3a 0a be e2 15 fa 3c
       -0.11691256 -0.07706611 -0.13498774 0.030528013
0003c0 f3 81 cc bc f1 02 d1 bd 32 4a c6 bc ee b5 f4 bd
       -0.024964308 -0.10205639 -0.024205301 -0.11948763
0003d0 c6 a1 78 3d 6d 18 c4 bd 20 7a 02 bd 90 ad da 3d
       0.060701154 -0.09574971 -0.03185475 0.10677636
0003e0 0d db 1f bb 52 f9 f9 bb 1a 4e a9 bd ee 55 17 bd
       -0.002439204 -0.0076285983 -0.0826685 -0.036947183
0003f0 96 89 a3 3d a0 02 74 bc 02 de 0b be 5c c2 a9 bd
       0.07985227 -0.014893204 -0.13658908 -0.08289024

bias f4 [64]
000000 f8 0b 88 3e 07 fd f4 bd f5 98 87 be 23 45 08 be
       0.2657163 -0.11962324 -0.26483884 -0.13307624
000010 bc 6a 3b be 08 11 82 be 1b 32 b6 3d 76 13 a2 3c
       -0.18302435 -0.2540362 0.088962756 0.01978467
000020 18 d5 f6 bd 91 c8 fa bd ef 63 a7 be 73 71 eb 3d
       -0.12052363 -0.12245286 -0.3269343 0.11496248
000030 13 07 4e be 23 a9 06 be b5 d5 da 3e f7 92 62 3e
       -0.20119886 -0.13150458 0.4274117 0.22126375
000040 f2 89 6f 3e b1 23 08 be 1b 1c 3e 3e 91 d3 f0 bd
       0.23392466 -0.13294865 0.18565409 -0.11759103
000050 16 ca 57 3c 37 7b 11 bd 2a 49 55 be 37 b5 5c 3d
       0.01317074 -0.035517897 -0.20828691 0.053883757
000060 a2 5f 79 3d 99 be 96 3c dd 9d de bd 25 4e 1d be
       0.06088222 0.01840143 -0.10869954 -0.15361841
000070 17 24 f9 3e 43 d0 00 3e 01 c8 ab 3c 8b 33 0f 3f
       0.48660347 0.12579446 0.020969393 0.55938023
000080 cd ec a3 3d 54 08 01 be d2 04 ff 3d 21 8a 9a bc
       0.080041505 -0.12600833 0.12452091 -0.018864693
000090 04 10 a9 3d 75 e8 9f be db fe 6e be ba b0 f1 bd
       0.08255008 -0.31232038 -0.23339407 -0.11801286
0000a0 d2 88 d5 3e 44 59 53 be 90 f7 fa bd 58 d5 85 3d
       0.41705948 -0.20639521 -0.1225425 0.06534833
0000b0 02 63 5e 3d 5a e6 ab bc b4 64 99 3e 3e 1e 0d 3e
       0.05429364 -0.020983864 0.29959643 0.13781068
0000c0 5b 77 69 be f0 3a 9f 3d c0 62 01 be d6 a0 fe bd
       -0.22799437 0.07774913 -0.12635326 -0.12433021
0000d0 92 2c 83 bd 3a 14 3b be fa 60 2c 3e eb 2e 02 be
       -0.064049855 -0.18269435 0.16833869 -0.1271321
0000e0 f7 ca e6 bd b6 e2 14 be c4 46 75 3d e2 56 4f be
       -0.11269181 -0.14539608 0.05988194 -0.20247987
0000f0 7d 0a 08 3f e9 70 06 be 76 74 e2 3d 61 cd 9f 3e
       0.53141004 -0.1312901 0.110573694 0.3121138

weight f4 [64, 64]
000000 a0 68 2b bc 00 27 3f 37 47 94 a5 bd d8 6f 9a bc
       -0.010461956 1.1393568e-05 -0.08084922 -0.01885216
000010 14 70 99 3d 7c b2 fc bd 52 2e 2b be 84 b4 8d be
       0.0749208 -0.12338731 -0.16716889 -0.27676785
000020 56 9e e4 bd 3e 03 8e bd 70 e7 75 3c 19 99 d1 bd
       -0.11163013 -0.06934212 0.015008792 -0.10234279
000030 93 32 53 be 08 69 21 3d 9b a3 df bd 93 01 67 be
       -0.20624761 0.039406806 -0.10919877 -0.22559194
000040 a3 09 01 be c3 fb 05 bd af 3e 3b be 16 43 1c 3d
       -0.12601332 -0.0327108 -0.1828563 0.038149916
000050 4d 41 32 be 98 ae bd bc 3d 63 bc bd c5 28 40 be
       -0.17407723 -0.023154542 -0.09198616 -0.18765552
000060 61 71 43 be ab 91 08 be 94 2a a3 bd 0c 3d 7b bd
       -0.1908622 -0.13336818 -0.079671055 -0.061337516
000070 59 3f b5 bd 92 ef 5f be 40 09 e6 3d 6a 0e 30 bd
       -0.08849973 -0.21868733 0.11232233 -0.042982496
000080 a8 a5 21 bd 52 64 25 be 6d 6f 5b be 11 10 d0 bd
       -0.039464623 -0.1615155 -0.21429224 -0.101593144
000090 d3 2f 58 bd 7e 09 b9 bd b2 d2 f8 bd a6 4f 2e 3e
       -0.052779984 -0.090350136 -0.12149562 0.17022571
0000a0 06 cb c1 bc 40 ed 1a 3d fd 83 3f be c3 ab ab bd
       -0.02365638 0.037823915 -0.18702693 -0.0838237
0000b0 2e ee d0 bd 36 19 11 bd 60 ec 67 be 27 e8 26 bd
       -0.10201679 -0.035424434 -0.22648764 -0.04074874
0000c0 68 78 16 3d 38 b6 ee bd 80 79 8d 3c 81 58 34 bd
       0.036735922 -0.11655849 0.01726985 -0.044029716
0000d0 80 46 ad 3c 7c a3 27 be ee fe 1c be bc ed f0 bd
       0.021151781 -0.16370958 -0.15331623 -0.11764094
0000e0 d4 b6 c4 bd f0 40 e8 bd ca 5e 7e be 27 97 1a bd
       -0.09605184 -0.11340511 -0.24840847 -0.037741806
0000f0 57 46 35 be 2a 15 55 be d5 8a 0b be 8b 93 4c bd
       -0.17702614 -0.20808855 -0.13627179 -0.049945395
000100 71 ae b9 be da 71 11 3e 26 7a 16 bd 34 55 b7 3c
       -0.362659 0.14203587 -0.036737584 0.022379495
000110 71 b8 bd bd 08 a2 83 3f 66 d3 e7 bc a4 58 ee bd
       -0.09263695 1.0283823 -0.028299045 -0.116380006
000120 40 f7 ee bb 5f 17 53 3d f4 57 e8 bc 32 8d e5 3d
       -0.007292658 0.05153596 -0.028362252 0.112085715
000130 d1 63 c3 3e a2 8c 6d bd 6d d2 77 bf ce fb f4 be
       0.3816209 -0.057995446 -0.9680546 -0.47848362
000140 2b f1 7e bc 6f 77 d1 bd cc c1 de 3e ee c7 77 3d
       -0.015560429 -0.10227858 0.4350723 0.060493402
000150 b3 e3 59 3e ae 82 7e 3d d8 b4 fc 3d 2d 2d 27 3f
       0.21278267 0.062136345 0.12339181 0.6530331
000160 11 42 0f be 26 4b 5b 3d f7 ff 18 3f b8 20 c5 bd
       -0.13990046 0.053538464 0.5976557 -0.09625381
000170 1b e6 27 be 84 90 04 be a4 13 87 3c e0 86 61 bf
       -0.16396372 -0.12945753 0.016488858 -0.8809643
000180 6b e6 e5 3d 33 63 01 3e 7c 81 01 bf 1b 1c 5e be
       0.11225589 0.12635498 -0.505882 -0.21690409
000190 39 92 36 be 08 84 16 3e 7a c5 e3 3d 9a b3 bd 3e
       -0.17829217 0.14698803 0.1112165 0.37051088
0001a0 d3 c4 67 3d 21 72 25 bb 3a 7a bd bd 4a 69 c5 bc
       0.05658419 -0.0025245028 -0.092518285 -0.024098057
0001b0 fe 56 22 bf fd 13 42 3f f0 73 95 be 95 d0 9f 3e
       -0.6341399 0.7581175 -0.29190016 0.31213823
0001c0 58 ea 10 3b 48 92 39 be 45 0d 88 3d 10 31 c8 be
       0.0022112336 -0.18122208 0.06643156 -0.39099932
0001d0 22 00 b4 bd 3e 60 87 3e 6d 44 e2 bf 04 e6 cf 3d
       -0.08789088 0.26440614 -1.7677132 0.10151294
0001e0 16 f7 02 3f 97 45 07 3d 46 9e 05 3f 0b ce 44 3e
       0.51158273 0.03302535 0.5219463 0.19219224
0001f0 be 30 60 bf e1 40 05 3f bd 16 4a be b2 2c 50 3e
       -0.87574375 0.5205212 -0.19735236 0.2032955
000200 3d 0f fa bd 71 94 46 be 9f 22 02 3f e4 35 d6 3d
       -0.12209938 -0.19392563 0.5083408 0.104594976
000210 99 b4 52 bd ab a9 1a 3e e0 ef 59 bd e1 ff a5 be
       -0.051441763 0.15103786 -0.05320728 -0.32421783
000220 7e 5a 5c 3c 97 a0 df bd 3b 8c ec be 50 6e a8 bd
       0.013449309 -0.10919302 -0.46200737 -0.082241654
000230 a9 c9 3f be 8e 39 f8 3d b6 49 17 3e 63 77 a1 be
       -0.18729271 0.12120353 0.14774212 -0.31536397
000240 01 12 0f be e5 63 12 bd af 12 8b 3d fc 3b da 3d
       -0.13971712 -0.035739798 0.06790673 0.10655972
000250 ff 9c b9 be 93 41 aa 3d bd 26 37 3e c7 e4 c2 bd
       -0.3625259 0.083132885 0.17885871 -0.09516292
000260 4b 0d 44 3e 31 ab bb 3e 32 d2 86 be 30 68 40 bd
       0.19145696 0.36654046 -0.2633224 -0.04697436
000270 70 e8 ea be 31 57 84 3e 06 f2 c3 bd ed 14 2e 3f
       -0.4588046 0.25847772 -0.09567647 0.6800068
000280 fd b7 9b bf e5 0a 5c 3e 40 2f 81 3f fc 2b 3e be
       -1.2165524 0.21488531 1.0092545 -0.18571466
000290 47 e1 8c be 88 9f 55 3c a4 d6 a3 3d 89 de 42 bf
       -0.27515623 0.0130385235 0.07999924 -0.7612081
0002a0 87 4a 10 3f 39 cc 58 bd b8 67 99 3e 3d 85 6a be
       0.5636372 -0.052929137 0.29961944 -0.22902389
0002b0 06 48 33 bd 30 e3 ee 3e 9e 50 c2 3d 77 80 3f be
       -0.04376986 0.46657705 0.09488033 -0.18701349
0002c0 ea 12 de bd b2 b7 35 3e c4 01 8e 3d 96 2c 32 3f
       -0.10843451 0.17745855 0.069339305 0.6959928
0002d0 ed 6d d7 3d a3 9b b0 3e f5 62 1f 3d 1a 4c 9d 3e
       0.105190136 0.3449374 0.038912732 0.30722123
0002e0 95 62 7b 3f 8b cd 00 bf 2b d4 8c 3e ce f4 03 3e
       0.981973 -0.50313634 0.2750562 0.12886354
0002f0 a8 e6 92 3e c3 13 31 3f 87 16 9b 3e c9 58 ca bc
       0.28691602 0.6917078 0.30290624 -0.02470054
000300 70 aa 42 bd 70 e4 23 3d 7e 7c d1 bd cc 5c 7f bd
       -0.047525823 0.040012777 -0.10228823 -0.062344357
000310 78 58 d7 bd 86 d5 9b 3d f5 8c 73 3d ae a1 45 bd
       -0.10514921 0.07609086 0.0594606 -0.048249893
000320 30 9e f7 3c a0 b8 aa bb c8 ca f0 bc 2f da f8 bd
       0.030226797 -0.0052099973 -0.029393569 -0.1215099
000330 a4 d9 01 3d 98 15 3f 3d de a1 9e 3d 7e f4 8a bc
       0.0317017 0.046651453 0.077457175 -0.016962286
000340 55 ef 9d bd c8 d6 f1 bc d7 14 5d 3d 88 e6 64 bd
       -0.077116646 -0.029521361 0.053974953 -0.055883914
000350 08 7b 86 bd 04 44 4d 3d 75 a4 0e be a0 49 8d 3b
       -0.06566435 0.050113693 -0.13929923 0.0043117553
000360 26 b7 18 bd 02 18 0a be ae e3 ab bc 9a 27 cd 3d
       -0.03728404 -0.13485721 -0.02098259 0.10017319
000370 a9 ce 49 3c 00 5f 96 bc d8 2b 85 3c 89 69 69 bd
       0.012317338 -0.018355846 0.016256258 -0.05698541
000380 92 8c 32 bd 04 48 4a 3d f5 45 a7 bd 02 cb 9b bd
       -0.04359109 0.049385086 -0.0816764 -0.0760708
000390 09 60 45 bc f4 16 1c 3d 68 28 87 3c f8 41 6b bb
       -0.012046822 0.038107827 0.01649876 -0.0035897475
0003a0 68 73 20 bd 88 e3 aa 3c 11 33 8b bd 60 54 c8 3c
       -0.03917256 0.020860448 -0.067968495 0.024454296
0003b0 06 75 ab bd 66 af d7 3d 15 85 00 be 09 d9 20 be
       -0.0837193 0.105315015 -0.12550767 -0.15707792
0003c0 90 c7 15 3d 78 a1 13 be ba 77 a5 3b ba 9d 2f be
       0.03656727 -0.14417064 0.005049673 -0.17150012
0003d0 14 f7 4b 3d 30 02 29 be 40 81 cf 3c 0e 36 88 bd
       0.04979618 -0.1650474 0.025330186 -0.06650935
0003e0 80 60 d6 bc b8 53 2b be aa b5 74 bd 96 6e e1 bc
       -0.026169062 -0.16731155 -0.05974356 -0.027518552
0003f0 78 61 0e 3d 88 50 cf bc 8b 60 27 bd cf 18 97 3c
       0.034760922 -0.025306955 -0.040863555 0.018444447

bias f4 [64]
000000 0d 4b 6f be 3b 9f cc be 42 d0 11 3e c4 5a ee bd
       -0.23368473 -0.39965233 0.142396 -0.11638406
000010 a5 99 a2 3d d9 26 b4 bd eb be 8b 3e c5 0e 0b be
       0.079394616 -0.08796472 0.27294096 -0.13579853
000020 54 d8 8a 3e 12 88 57 3d 21 bd e2 bd 45 a6 5e be
       0.2711817 0.05262 -0.1107123 -0.21743114
000030 e8 b6 38 be 29 5f e4 3e 4d 60 65 be cd e8 86 3e
       -0.18038523 0.4460385 -0.22400017 0.26349488
000040 66 ce e5 3d 00 c0 1d be 55 98 8f 3d 09 42 6a be
       0.11221008 -0.15405273 0.07011477 -0.22876753
000050 3f d2 2a 3c c5 8d 9b bf 0f 05 69 3e 20 7c 66 be
       0.010426103 -1.215264 0.22755836 -0.22508287
000060 fc f9 fc bd 28 f2 18 bd 69 da 38 be b4 2e 29 3e
       -0.12352368 -0.037340313 -0.18052067 0.16521722
000070 c6 71 37 be c5 e1 16 bb 3f 2b 8e 3e 57 c6 dd bd
       -0.17914495 -0.0023022753 0.2776737 -0.10828846
000080 91 d3 b7 bc 14 08 07 be 38 ed 84 be 61 22 3a 3e
       -0.02243975 -0.13186675 -0.25962234 0.18177177
000090 9c d3 75 3e b8 93 38 be 96 cf ac 3d 5c 21 a3 bd
       0.24006504 -0.180251 0.084380314 -0.07965347
0000a0 f1 fd f3 3c b4 5b 2f 3d 86 db c5 bd f4 e0 44 3d
       0.029784175 0.042812064 -0.096610114 0.048066095
0000b0 03 00 be bd 6e 42 14 be 10 e1 ed 3c b5 41 71 be
       -0.09277346 -0.14478466 0.029037982 -0.23560221
0000c0 5b 74 33 3d 40 be ea bd cd 2b c4 bd 1c 82 09 3e
       0.043812137 -0.114620686 -0.09578667 0.13428539
0000d0 15 99 c8 bd a2 07 62 be f0 86 ce 3e b8 54 77 3d
       -0.09794823 -0.22073224 0.40337324 0.06038353
0000e0 5a b9 43 3e 89 73 e0 bd e8 95 64 be b4 cf 43 3e
       0.19113675 -0.109595366 -0.2232281 0.19122201
0000f0 4d 4a 8f bd 49 f2 8a bd 8d 70 5e bd ed 7a 45 3e
       -0.069965936 -0.067844935 -0.054306556 0.19285174

weight f4 [64, 64]
000000 3d 1a c4 bd 4d 9c d7 3f 55 9e 1e 3e aa 95 a2 bd
       -0.09575317 1.6844574 0.15490086 -0.079387024
000010 5a 45 17 3f 74 69 81 bd 38 8e 2a bf 9d 7f 34 bd
       0.590902 -0.06318942 -0.6662326 -0.044067014
000020 10 a4 4c 3d ff 36 37 bc 1c 22 9b bd 10 5c 8f bc
       0.04996115 -0.011182546 -0.07574865 -0.017499954
000030 ad 84 b3 3f 96 f5 1f bf 7d 98 a7 3f d8 0f 30 3f
       1.4024864 -0.6248411 1.3093411 0.68774176
000040 c8 62 1b 3e c5 7a 17 be 6c 43 f3 3c f9 69 50 be
       0.15174401 -0.14792927 0.029695235 -0.20352925
000050 de 25 91 bd 35 ea 8e bf ca 26 46 bd 80 b0 b4 bd
       -0.07087301 -1.1165224 -0.048376836 -0.08822727
000060 6d 8f 10 be b1 83 d1 3d 8d 9c dc bc 0b f6 84 3f
       -0.14117213 0.10230196 -0.026930118 1.0387586
000070 48 c0 30 3f a6 69 77 bf a2 de 62 bf a8 f7 f4 3e
       0.690434 -0.9664558 -0.8862096 0.47845197
000080 71 89 5e 3d 41 c8 9f 3c fc 00 19 bd 6e d5 7a 3e
       0.054330293 0.019504668 -0.037354454 0.2449548
000090 dd 6b 46 be 10 5f 24 3f fa 0b ff 3e 0a 3c 17 3e
       -0.19377084 0.64207554 0.49813825 0.14768997
0000a0 2c 62 ad 3e b7 6a a6 be 96 6e 9d 3d 60 fa 04 3e
       0.33863962 -0.32503292 0.07687108 0.12986135
0000b0 bd 54 02 bd f6 be 93 3b 0e 3c 83 3d dc df 99 3e
       -0.031819094 0.0045088483 0.06407939 0.30053604
0000c0 df f5 07 3d b6 41 d8 3d d3 13 9c 3e 1d 7b 09 be
       0.033193465 0.10559408 0.30483875 -0.1342587
0000d0 30 bc e3 3d 08 12 40 be f1 49 33 3f c9 de 61 bd
       0.11119878 -0.18756878 0.700347 -0.055144105
0000e0 8a 96 98 be c1 2c 4f 3c 0e 81 cd 3d b7 9d c9 3d
       -0.29802352 0.0126449475 0.10034381 0.09844535
0000f0 63 2d 8a bd 32 0f 77 bd ff bc 9c bd d7 3a 66 3e
       -0.06746938 -0.060317226 -0.07653236 0.22483383
000100 3e 53 5a be 38 d0 3f bd f3 ce 1c bf 3c a6 76 bd
       -0.21320817 -0.046829432 -0.6125328 -0.060217127
000110 7f 72 67 bf 18 b5 ee bc 3f 84 f4 3e d3 d9 8b 3e
       -0.9040908 -0.029139087 0.47757146 0.27314624
000120 3c 49 8c 3d 3c 92 9a bf df 8a 47 3e 15 64 0d 3d
       0.06849906 -1.2075877 0.19486569 0.034519274
000130 05 45 f0 bd c3 7b b2 bf 86 72 96 3e 69 71 77 bf
       -0.117319144 -1.3944019 0.2938425 -0.96657425
000140 49 1f 02 3f db 01 d2 bc d8 d0 11 3e 34 14 05 3d
       0.5082899 -0.02563565 0.14239824 0.03248997
000150 15 e1 e1 bd cd 5d b8 3d 57 27 81 bf b2 66 c6 3d
       -0.11029259 0.09002266 -1.009013 0.09687556
000160 fb 57 c0 3c 64 28 0a 3e 57 1f 66 bd 46 43 bc bf
       0.023479452 0.1349197 -0.05618223 -1.470803
000170 c3 5d a1 3d 58 7e 67 3f 00 39 23 bf df 35 23 3c
       0.07879212 0.9042716 -0.6375885 0.009961574
000180 4f 1b ed 3d 9e 00 06 3e 50 af 7f 3d 08 49 00 bf
       0.11577474 0.13086173 0.06242305 -0.50111437
000190 08 2b 1d be 6e 55 8a 3e d3 0f dd 3e 06 53 b8 3e
       -0.15348446 0.27018303 0.43176135 0.36000842
0001a0 23 7e a0 3e 2a b1 69 bf 0a f6 08 3d f8 32 4f bd
       0.31346235 -0.91285956 0.033437766 -0.050585717
0001b0 2a 5b 2b 3c 53 e8 17 bd cf d7 a3 3d b2 88 15 3f
       0.010458747 -0.037086796 0.080001466 0.58411705
0001c0 0e 20 4b bd 54 ec 4f bd 48 3d d4 3e 6f db 7c 3f
       -0.049591117 -0.05076249 0.41453004 0.9877233
0001d0 e3 10 9e 3d 70 35 97 bd 8a 45 ad bf de f0 67 3d
       0.07718065 -0.07383239 -1.3536847 0.056626193
0001e0 18 f7 ba 3c b9 2b fb 3d dc 02 0d 3e bf 0e 26 bd
       0.022822902 0.12264199 0.13770622 -0.040541407
0001f0 f2 b2 72 bd 8c ef ff bc 4f 08 cd 3d 3e 10 75 be
       -0.059252687 -0.031242155 0.1001135 -0.23931977
000200 25 51 55 3d 19 2b d1 3f 04 cb b8 bd 0c 4c 48 bd
       0.05207934 1.6341277 -0.09023097 -0.04890065
000210 5e 71 8f bd 5f 2d ea 3d 73 e9 e6 3e 12 c3 bf 3d
       -0.07004045 0.11434435 0.45099983 0.093633786
000220 d9 71 13 bd 7b d5 ac 3e 95 28 28 bf c8 dd eb bd
       -0.035997245 0.33756623 -0.65686923 -0.11516911
000230 c1 74 36 bf f4 b7 aa bc cd f0 3f bf d8 80 b2 3e
       -0.712719 -0.020839669 -0.7497681 0.34863925
000240 39 6d cf 3d 3d 37 01 bd 4f bb fd be dc 68 a1 3d
       0.101282544 -0.03154682 -0.49556968 0.078813285
000250 0b 96 16 3d d3 b6 c3 c0 e7 a1 d0 3e 12 de 90 bd
       0.036764186 -6.1160674 0.40748522 -0.070736066
000260 e6 91 c4 bd 43 94 a1 bd 8f c2 3b be 0e b6 9f bf
       -0.095981404 -0.07889607 -0.18335937 -1.2477434
000270 f9 7e df be bc 66 03 3c 99 23 c1 3d 6d b9 56 3d
       -0.4365156 0.008020099 0.09430618 0.05242293
000280 c9 99 bb bd bd 8f 22 3e ac c1 27 bd ab bf 2c 3e
       -0.091601916 0.15875144 -0.040956184 0.1686999
000290 50 65 e9 3d 12 66 19 bf 07 67 ec bd e4 2a 7f be
       0.11396277 -0.5992137 -0.115430884 -0.24918705
0002a0 6d f3 d8 be cb 10 5e bf 00 b1 89 3d 46 ff 14 3d
       -0.4237322 -0.86744374 0.06723213 0.03637626
0002b0 fb 52 9f 3d 3f 6e 79 3d 6b 34 b2 bd d5 3b 30 3d
       0.07779499 0.060896154 -0.08701404 0.04302581
0002c0 ad b8 e7 ba 8a 6b 92 bd 00 e5 37 bf 62 94 c6 be
       -0.0017678939 -0.07149418 -0.718338 -0.38785082
0002d0 5b 0c c4 3d 9a c5 2c 3e 84 c3 87 3f 5f 47 a7 bd
       0.09572669 0.16872254 1.0606542 -0.0816791
0002e0 ca 4b fe 3d c4 54 af 3b 00 58 9d 3d a1 c7 b9 3e
       0.12416799 0.005350681 0.076828 0.36285117
0002f0 00 35 00 bb a4 e5 44 3d 7a bb ba bd 9e b0 7a 3e
       -0.001956284 0.048070565 -0.091177896 0.24481437
000300 59 d2 4a 3e ca 9e 64 bf 00 66 79 3e 60 22 22 3d
       0.19806804 -0.8930479 0.24355316 0.039583564
000310 44 f8 96 3f 6e 69 d5 3d 4c 16 37 bf fe 67 98 3e
       1.1794515 0.104205 -0.715184 0.2976684
000320 29 9d 9e bf 56 12 39 3f b4 fd 72 bf c5 cf a9 3d
       -1.2391711 0.72293603 -0.9491837 0.08291582
000330 66 2e 9a be 91 06 70 3e bf bd 66 bf 00 f2 d6 3e
       -0.30113524 0.23440005 -0.9013328 0.41981506
000340 0d 14 3f c0 17 58 cf 3d 4e 56 9c 3e 2b 4a 82 3c
       -2.9855988 0.10124224 0.30534595 0.015904507
000350 58 86 de 3d 1a 34 9e 3f 0a 1e fc 3e ac 7a 52 3d
       0.10865468 1.235965 0.49241668 0.05138652
000360 7d ce d4 3a 50 91 86 bc 86 d4 4a 3e ef 73 fc bf
       0.0016235855 -0.016426712 0.19807634 -1.972288
000370 a2 40 12 3f e6 73 c8 bf 19 39 d3 3e 67 3b 72 bf
       0.5712987 -1.5660369 0.412545 -0.9462189
000380 ac e9 84 bd 00 a2 74 3a da 60 89 3d 03 15 ac 3f
       -0.06489882 0.0009332001 0.06707926 1.3443912
000390 f6 58 92 bf 13 12 b2 bf 7a 54 ef be 72 18 44 bf
       -1.1433399 -1.3911766 -0.46744138 -0.765998
0003a0 28 65 a2 be e8 3c 52 be d0 9f e4 bc e0 f5 f5 3b
       -0.317178 -0.20531046 -0.027908236 0.007506117
0003b0 b0 64 d9 3d d0 b2 ef bd 50 6a fc 3c ee 76 a4 3e
       0.10614908 -0.11704028 0.030812413 0.32121986
0003c0 66 33 58 3e c8 41 b8 3d 11 24 88 3e a3 d9 6c 40
       0.21113357 0.08996922 0.26590016 3.7007835
0003d0 d0 43 8d 3c a3 15 55 3d d8 34 b4 bc b8 ab 85 bc
       0.01724425 0.052022588 -0.021997854 -0.016317233
0003e0 61 7e da 3e 78 29 61 3d ff 33 07 be 4f 51 00 bf
       0.42674544 0.05497119 -0.13203429 -0.5012407
0003f0 80 6b 7f 3c d1 97 79 bc 18 fc 85 3d 87 50 be 3f
       0.015589595 -0.01523395 0.06542224 1.4868325

bias f4 [64]
000000 a6 3d 0d 3e 73 ea 91 3d c8 7c a9 3e 2d 74 de be
       0.13793048 0.07124796 0.33103013 -0.4344801
000010 46 ff ad 3e f4 55 7d be 89 63 a4 bd 06 3e 6a bc
       0.3398382 -0.2473982 -0.08026797 -0.014297014
000020 26 7c 9b 3e 23 be c5 bd 5f 70 b2 3c f9 28 1e bc
       0.30368155 -0.09655406 0.021782098 -0.009653323
000030 de c6 2e 3e 36 db 14 be 7b 63 a0 3e 40 aa 7d 3e
       0.1706805 -0.14536747 0.31325898 0.24771976
000040 49 7a 00 bb a3 18 12 3e 97 bc dd be af 6a 87 3e
       -0.0019604138 0.1426721 -0.43307945 0.2644858
000050 85 0e 1f 3e d3 6e ce bd 91 fe df 3e 2c 56 1a bf
       0.15532883 -0.10079732 0.43748906 -0.6028774
000060 9e 4c 24 bf 1a 74 8b be 2e 02 6b 3e db 77 16 be
       -0.6417941 -0.27237016 0.2295005 -0.14694159
000070 6e f8 bd bd b5 54 cb bd 9d 60 f9 3e c3 53 96 3d
       -0.092759 -0.09928266 0.48706523 0.07340195
000080 00 aa 41 bf b5 7d 89 bd 39 c8 8f bc c5 c7 1e 3d
       -0.75650024 -0.0671343 -0.017551528 0.038764734
000090 78 98 11 bf a5 db b1 bd 5c 5a 0e 3f ca 2a 92 3e
       -0.56873274 -0.08684472 0.5560663 0.2854827
0000a0 36 29 d4 bd 91 f6 8b bd bf 33 55 bd 43 e9 a8 bd
       -0.10359423 -0.06834138 -0.052051302 -0.08247616
0000b0 f7 38 49 bf f3 10 f1 3a 1e ff 10 3e 14 70 db bc
       -0.78602546 0.0018391892 0.1415982 -0.026786841
0000c0 ab 23 97 3e 3d 1d 8c 3c 60 74 29 be 58 4e ff 3d
       0.295194 0.017103786 -0.165483 0.12466115
0000d0 ce 98 ec bb c0 4a e4 bd 2e 5c d2 3e fc 1a 7d 3e
       -0.007220364 -0.1114707 0.41085953 0.24717325
0000e0 77 60 81 bd b1 23 2a 3f c2 f5 0a be fe ae 53 3d
       -0.06317227 0.6646071 -0.13570312 0.051680557
0000f0 9b be 32 bd ba cc 62 3e 5d 4e 31 3d 64 a6 a9 3e
       -0.043638807 0.2214841 0.043287624 0.33134758
